7767517
176 200
Input                    images                   0 1 images
YoloV5Focus              focus                    1 1 images 166
Convolution              Conv_41                  1 1 166 167 0=32 1=3 4=1 5=1 6=3456
Swish                    Mul_43                   1 1 167 169
Convolution              Conv_44                  1 1 169 170 0=64 1=3 3=2 4=1 5=1 6=18432
Swish                    Mul_46                   1 1 170 172
Split                    splitncnn_0              1 2 172 172_splitncnn_0 172_splitncnn_1
Convolution              Conv_47                  1 1 172_splitncnn_1 173 0=32 1=1 5=1 6=2048
Swish                    Mul_49                   1 1 173 175
Split                    splitncnn_1              1 2 175 175_splitncnn_0 175_splitncnn_1
Convolution              Conv_50                  1 1 175_splitncnn_1 176 0=32 1=1 5=1 6=1024
Swish                    Mul_52                   1 1 176 178
Convolution              Conv_53                  1 1 178 179 0=32 1=3 4=1 5=1 6=9216
Swish                    Mul_55                   1 1 179 181
BinaryOp                 Add_56                   2 1 175_splitncnn_0 181 182
Convolution              Conv_57                  1 1 172_splitncnn_0 183 0=32 1=1 5=1 6=2048
Swish                    Mul_59                   1 1 183 185
Concat                   Concat_60                2 1 182 185 186
Convolution              Conv_61                  1 1 186 187 0=64 1=1 5=1 6=4096
Swish                    Mul_63                   1 1 187 189
Convolution              Conv_64                  1 1 189 190 0=128 1=3 3=2 4=1 5=1 6=73728
Swish                    Mul_66                   1 1 190 192
Split                    splitncnn_2              1 2 192 192_splitncnn_0 192_splitncnn_1
Convolution              Conv_67                  1 1 192_splitncnn_1 193 0=64 1=1 5=1 6=8192
Swish                    Mul_69                   1 1 193 195
Split                    splitncnn_3              1 2 195 195_splitncnn_0 195_splitncnn_1
Convolution              Conv_70                  1 1 195_splitncnn_1 196 0=64 1=1 5=1 6=4096
Swish                    Mul_72                   1 1 196 198
Convolution              Conv_73                  1 1 198 199 0=64 1=3 4=1 5=1 6=36864
Swish                    Mul_75                   1 1 199 201
BinaryOp                 Add_76                   2 1 195_splitncnn_0 201 202
Split                    splitncnn_4              1 2 202 202_splitncnn_0 202_splitncnn_1
Convolution              Conv_77                  1 1 202_splitncnn_1 203 0=64 1=1 5=1 6=4096
Swish                    Mul_79                   1 1 203 205
Convolution              Conv_80                  1 1 205 206 0=64 1=3 4=1 5=1 6=36864
Swish                    Mul_82                   1 1 206 208
BinaryOp                 Add_83                   2 1 202_splitncnn_0 208 209
Split                    splitncnn_5              1 2 209 209_splitncnn_0 209_splitncnn_1
Convolution              Conv_84                  1 1 209_splitncnn_1 210 0=64 1=1 5=1 6=4096
Swish                    Mul_86                   1 1 210 212
Convolution              Conv_87                  1 1 212 213 0=64 1=3 4=1 5=1 6=36864
Swish                    Mul_89                   1 1 213 215
BinaryOp                 Add_90                   2 1 209_splitncnn_0 215 216
Convolution              Conv_91                  1 1 192_splitncnn_0 217 0=64 1=1 5=1 6=8192
Swish                    Mul_93                   1 1 217 219
Concat                   Concat_94                2 1 216 219 220
Convolution              Conv_95                  1 1 220 221 0=128 1=1 5=1 6=16384
Swish                    Mul_97                   1 1 221 223
Split                    splitncnn_6              1 2 223 223_splitncnn_0 223_splitncnn_1
Convolution              Conv_98                  1 1 223_splitncnn_1 224 0=256 1=3 3=2 4=1 5=1 6=294912
Swish                    Mul_100                  1 1 224 226
Split                    splitncnn_7              1 2 226 226_splitncnn_0 226_splitncnn_1
Convolution              Conv_101                 1 1 226_splitncnn_1 227 0=128 1=1 5=1 6=32768
Swish                    Mul_103                  1 1 227 229
Split                    splitncnn_8              1 2 229 229_splitncnn_0 229_splitncnn_1
Convolution              Conv_104                 1 1 229_splitncnn_1 230 0=128 1=1 5=1 6=16384
Swish                    Mul_106                  1 1 230 232
Convolution              Conv_107                 1 1 232 233 0=128 1=3 4=1 5=1 6=147456
Swish                    Mul_109                  1 1 233 235
BinaryOp                 Add_110                  2 1 229_splitncnn_0 235 236
Split                    splitncnn_9              1 2 236 236_splitncnn_0 236_splitncnn_1
Convolution              Conv_111                 1 1 236_splitncnn_1 237 0=128 1=1 5=1 6=16384
Swish                    Mul_113                  1 1 237 239
Convolution              Conv_114                 1 1 239 240 0=128 1=3 4=1 5=1 6=147456
Swish                    Mul_116                  1 1 240 242
BinaryOp                 Add_117                  2 1 236_splitncnn_0 242 243
Split                    splitncnn_10             1 2 243 243_splitncnn_0 243_splitncnn_1
Convolution              Conv_118                 1 1 243_splitncnn_1 244 0=128 1=1 5=1 6=16384
Swish                    Mul_120                  1 1 244 246
Convolution              Conv_121                 1 1 246 247 0=128 1=3 4=1 5=1 6=147456
Swish                    Mul_123                  1 1 247 249
BinaryOp                 Add_124                  2 1 243_splitncnn_0 249 250
Convolution              Conv_125                 1 1 226_splitncnn_0 251 0=128 1=1 5=1 6=32768
Swish                    Mul_127                  1 1 251 253
Concat                   Concat_128               2 1 250 253 254
Convolution              Conv_129                 1 1 254 255 0=256 1=1 5=1 6=65536
Swish                    Mul_131                  1 1 255 257
Split                    splitncnn_11             1 2 257 257_splitncnn_0 257_splitncnn_1
Convolution              Conv_132                 1 1 257_splitncnn_1 258 0=512 1=3 3=2 4=1 5=1 6=1179648
Swish                    Mul_134                  1 1 258 260
Convolution              Conv_135                 1 1 260 261 0=256 1=1 5=1 6=131072
Swish                    Mul_137                  1 1 261 263
Split                    splitncnn_12             1 4 263 263_splitncnn_0 263_splitncnn_1 263_splitncnn_2 263_splitncnn_3
Pooling                  MaxPool_138              1 1 263_splitncnn_3 264 1=5 3=2 5=1
Pooling                  MaxPool_139              1 1 263_splitncnn_2 265 1=9 3=4 5=1
Pooling                  MaxPool_140              1 1 263_splitncnn_1 266 1=13 3=6 5=1
Concat                   Concat_141               4 1 263_splitncnn_0 264 265 266 267
Convolution              Conv_142                 1 1 267 268 0=512 1=1 5=1 6=524288
Swish                    Mul_144                  1 1 268 270
Split                    splitncnn_13             1 2 270 270_splitncnn_0 270_splitncnn_1
Convolution              Conv_145                 1 1 270_splitncnn_1 271 0=256 1=1 5=1 6=131072
Swish                    Mul_147                  1 1 271 273
Convolution              Conv_148                 1 1 273 274 0=256 1=1 5=1 6=65536
Swish                    Mul_150                  1 1 274 276
Convolution              Conv_151                 1 1 276 277 0=256 1=3 4=1 5=1 6=589824
Swish                    Mul_153                  1 1 277 279
Convolution              Conv_154                 1 1 270_splitncnn_0 280 0=256 1=1 5=1 6=131072
Swish                    Mul_156                  1 1 280 282
Concat                   Concat_157               2 1 279 282 283
Convolution              Conv_158                 1 1 283 284 0=512 1=1 5=1 6=262144
Swish                    Mul_160                  1 1 284 286
Convolution              Conv_161                 1 1 286 287 0=256 1=1 5=1 6=131072
Swish                    Mul_163                  1 1 287 289
Split                    splitncnn_14             1 2 289 289_splitncnn_0 289_splitncnn_1
Interp                   Resize_165               1 1 289_splitncnn_1 294 0=1 1=2.000000e+00 2=2.000000e+00
Concat                   Concat_166               2 1 294 257_splitncnn_0 295
Split                    splitncnn_15             1 2 295 295_splitncnn_0 295_splitncnn_1
Convolution              Conv_167                 1 1 295_splitncnn_1 296 0=128 1=1 5=1 6=65536
Swish                    Mul_169                  1 1 296 298
Convolution              Conv_170                 1 1 298 299 0=128 1=1 5=1 6=16384
Swish                    Mul_172                  1 1 299 301
Convolution              Conv_173                 1 1 301 302 0=128 1=3 4=1 5=1 6=147456
Swish                    Mul_175                  1 1 302 304
Convolution              Conv_176                 1 1 295_splitncnn_0 305 0=128 1=1 5=1 6=65536
Swish                    Mul_178                  1 1 305 307
Concat                   Concat_179               2 1 304 307 308
Convolution              Conv_180                 1 1 308 309 0=256 1=1 5=1 6=65536
Swish                    Mul_182                  1 1 309 311
Convolution              Conv_183                 1 1 311 312 0=128 1=1 5=1 6=32768
Swish                    Mul_185                  1 1 312 314
Split                    splitncnn_16             1 2 314 314_splitncnn_0 314_splitncnn_1
Interp                   Resize_187               1 1 314_splitncnn_1 319 0=1 1=2.000000e+00 2=2.000000e+00
Concat                   Concat_188               2 1 319 223_splitncnn_0 320
Split                    splitncnn_17             1 2 320 320_splitncnn_0 320_splitncnn_1
Convolution              Conv_189                 1 1 320_splitncnn_1 321 0=64 1=1 5=1 6=16384
Swish                    Mul_191                  1 1 321 323
Convolution              Conv_192                 1 1 323 324 0=64 1=1 5=1 6=4096
Swish                    Mul_194                  1 1 324 326
Convolution              Conv_195                 1 1 326 327 0=64 1=3 4=1 5=1 6=36864
Swish                    Mul_197                  1 1 327 329
Convolution              Conv_198                 1 1 320_splitncnn_0 330 0=64 1=1 5=1 6=16384
Swish                    Mul_200                  1 1 330 332
Concat                   Concat_201               2 1 329 332 333
Convolution              Conv_202                 1 1 333 334 0=128 1=1 5=1 6=16384
Swish                    Mul_204                  1 1 334 336
Split                    splitncnn_18             1 2 336 336_splitncnn_0 336_splitncnn_1
Convolution              Conv_205                 1 1 336_splitncnn_1 337 0=128 1=3 3=2 4=1 5=1 6=147456
Swish                    Mul_207                  1 1 337 339
Concat                   Concat_208               2 1 339 314_splitncnn_0 340
Split                    splitncnn_19             1 2 340 340_splitncnn_0 340_splitncnn_1
Convolution              Conv_209                 1 1 340_splitncnn_1 341 0=128 1=1 5=1 6=32768
Swish                    Mul_211                  1 1 341 343
Convolution              Conv_212                 1 1 343 344 0=128 1=1 5=1 6=16384
Swish                    Mul_214                  1 1 344 346
Convolution              Conv_215                 1 1 346 347 0=128 1=3 4=1 5=1 6=147456
Swish                    Mul_217                  1 1 347 349
Convolution              Conv_218                 1 1 340_splitncnn_0 350 0=128 1=1 5=1 6=32768
Swish                    Mul_220                  1 1 350 352
Concat                   Concat_221               2 1 349 352 353
Convolution              Conv_222                 1 1 353 354 0=256 1=1 5=1 6=65536
Swish                    Mul_224                  1 1 354 356
Split                    splitncnn_20             1 2 356 356_splitncnn_0 356_splitncnn_1
Convolution              Conv_225                 1 1 356_splitncnn_1 357 0=256 1=3 3=2 4=1 5=1 6=589824
Swish                    Mul_227                  1 1 357 359
Concat                   Concat_228               2 1 359 289_splitncnn_0 360
Split                    splitncnn_21             1 2 360 360_splitncnn_0 360_splitncnn_1
Convolution              Conv_229                 1 1 360_splitncnn_1 361 0=256 1=1 5=1 6=131072
Swish                    Mul_231                  1 1 361 363
Convolution              Conv_232                 1 1 363 364 0=256 1=1 5=1 6=65536
Swish                    Mul_234                  1 1 364 366
Convolution              Conv_235                 1 1 366 367 0=256 1=3 4=1 5=1 6=589824
Swish                    Mul_237                  1 1 367 369
Convolution              Conv_238                 1 1 360_splitncnn_0 370 0=256 1=1 5=1 6=131072
Swish                    Mul_240                  1 1 370 372
Concat                   Concat_241               2 1 369 372 373
Convolution              Conv_242                 1 1 373 374 0=512 1=1 5=1 6=262144
Swish                    Mul_244                  1 1 374 376
Convolution              Conv_245                 1 1 336_splitncnn_0 377 0=18 1=1 5=1 6=2304
Reshape                  Reshape_259              1 1 377 395 0=-1 1=6 2=3
Permute                  Transpose_260            1 1 395 output 0=1
Convolution              Conv_261                 1 1 356_splitncnn_0 397 0=18 1=1 5=1 6=4608
Reshape                  Reshape_275              1 1 397 415 0=-1 1=6 2=3
Permute                  Transpose_276            1 1 415 416 0=1
Convolution              Conv_277                 1 1 376 417 0=18 1=1 5=1 6=9216
Reshape                  Reshape_291              1 1 417 435 0=-1 1=6 2=3
Permute                  Transpose_292            1 1 435 436 0=1
